model.pth (torch, 871303 bytes, 16 tensors)

encoder_lstm1.weight_ih_l0 f4 [512, 1]
-0.058626756 0.017648475 0.0810771 -0.04796421 -0.007464943 0.03348493 0.03348458 0.019622227
-0.067543395 -0.013827441 0.005974683 -0.09390518 0.104777426 -0.032277703 0.08056451 -0.055758685
0.050440818 -0.031396087 -0.06409571 0.03950079 0.06385281 -0.08894813 0.014545055 0.070530556
0.060098834 -0.06385263 -0.059651967 0.014864462 0.081144884 0.0596477 -0.078120984 -0.000984771
-0.051801644 0.05376687 0.0032142156 -0.055846598 -0.06945811 -0.018663375 0.0032039406 -0.0013952691
0.0049967025 -0.022731695 -0.08855292 0.009353404 0.013739494 -0.028599532 -0.024737747 -0.045791194
-0.0041844375 0.053451154 -0.030611403 -0.0342097 -0.018556513 0.09084605 0.056147274 -0.094535306
0.0937936 0.064018056 -0.058127858 -0.07934273 -0.036922276 -0.069644235 -0.070127286 0.10643145
0.044255234 -0.038130295 0.020363672 0.07384192 -0.07396731 -0.014413289 -0.06825555 0.03071621
0.027593322 0.0679777 0.05079564 0.004558837 -0.026159698 -0.000982075 -0.032529514 -0.044856086
0.039947614 0.057269853 -0.10010931 0.03496716 0.011823635 0.050826192 -0.008858785 -0.031260364
-0.026807938 0.05334281 0.013015762 0.017054852 -0.052572943 0.027380042 0.008248702 -0.01806317
-0.04056404 0.067798555 0.0007278778 0.07659175 0.07495375 -0.05981618 0.04880351 0.06685238
-0.046081502 -0.055331193 0.020861411 -0.010161223 0.052012153 0.012015761 -0.045106925 0.09556583
0.058985088 0.07417024 -0.011888586 0.00039504422 -0.021519138 -0.056919437 -0.019027434 -0.08248259
0.07400378 -0.052619774 -0.05485782 -0.020655558 0.013839803 -0.036875963 0.02404877 -0.09173602
0.054058842 -0.0060313297 -0.051791076 0.012708204 0.08476941 -0.03803671 0.0475088 0.03537044
0.05240653 0.0008462189 0.07815879 -0.012560525 -0.004890321 -0.072183006 0.0484766 0.0925769
-0.025424829 0.041555606 -0.044927355 0.092046544 -0.02978907 -0.022864377 -0.052197743 0.046315003
-0.070469916 -0.059987362 0.03791443 0.06467239 0.05463003 0.019935345 0.085798755 0.026311135
-0.0077807847 -0.079363465 -0.013351314 -0.0729066 -0.0010438353 0.061512433 -0.0102161355 -0.04914136
0.06763405 0.0687828 0.011981654 0.008966924 -0.009296137 -0.09712421 -0.014623492 0.029091261
-0.012275081 0.093204565 0.036535993 0.010608714 0.08343314 -0.008312022 -0.09179152 -0.0056187273
0.01964913 -0.0024813977 0.061398003 0.072716646 -0.012894035 -0.09020577 -0.023904229 -0.04391017
-0.089481875 -0.057110626 0.062660754 -0.062152732 0.07779024 0.03296965 -0.05167835 0.08246585
-0.019151151 -0.047955684 0.0130515685 0.0077010486 -0.08076823 -0.063863516 0.03952157 0.0568948
0.030509373 -0.04873477 0.03466734 -0.0031932578 0.09379364 -0.08068976 0.026212098 -0.075916655
0.0069097825 0.11068679 0.015457103 -0.02368359 0.045917057 0.051883172 -0.033784926 0.098675184
-0.003910928 -0.04034615 -0.06981879 -0.025612704 0.046089776 -0.041979205 0.014931851 -0.07217663
-0.042745695 -0.083440065 0.012600723 0.08258768 -0.0021835687 -0.049252354 0.029466188 0.08051819
0.051631402 0.005866347 -0.017362993 -0.027063526 0.06036037 0.0966111 -0.039705172 0.035374664
0.012310743 0.012444893 0.070909135 0.0703497 0.017021371 -0.02938945 0.03055106 -0.036770284
00000000: 9c22 70bd 8993 903c c00b a63d 1f76 44bd
00000010: 7b9c f4bb 7e27 093d 2127 093d cbbe a03c
00000020: 3154 8abd 7e8c 62bc 46c7 c33b 5c51 c0bd
00000030: 8c95 d63d a035 04bd 01ff a43d 3863 64bd
00000040: 089b 4e3d 2f99 00bd 9d44 83bd 95cb 213d
00000050: 43c5 823d 702a b6bd 624e 6e3c 5372 903d
00000060: 322a 763d 2bc5 82bd 9f55 74bd 138a 733c
00000070: 4a2f a63d 2651 743d e5fd 9fbd 6e13 81ba
00000080: f62d 54bd a63a 5c3d 97a5 523b 67bf 64bd
00000090: 0e40 8ebd efe3 98bc 34f9 513b 76e1 b6ba
000000a0: 61bb a33b d237 babc 3c5b b5bd 053f 193c
000000b0: 9d1b 613c 9149 eabc d1a6 cabc 8c8f 3bbd
000000c0: 9b1d 89bb 99ef 5a3d c4c4 fabc 781f 0cbd
000000d0: d403 98bc 7e0d ba3d affa 653d ba9b c1bd
000000e0: dc16 c03d e61b 833d 7a17 6ebd 717e a2bd
000000f0: d03b 17bd a3a1 8ebd e59e 8fbd bbf8 d93d
00000100: fa44 353d 832e 1cbd b7d1 a63c 6f3a 973d
00000110: 2c7c 97bd b725 6cbc 91c9 8bbd 90a0 fb3c
00000120: 640b e23c e437 8b3d 170f 503d 4c62 953b
00000130: dd4c d6bc f8b8 80ba ab3d 05bd 04bb 37bd
00000140: 1ca0 233d cb93 6a3d 1c06 cdbd ba39 0f3d
00000150: ebb7 413c 202f 503d 7024 11bc de0a 00bd
00000160: 529c dbbc fe7d 5a3d 1040 553c 9eb6 8b3c
00000170: ba56 57bd 1c4c e03c 9025 073c 37f9 93bc
00000180: 7b26 26bd f8d9 8a3d 0dcf 3e3a 23dc 9c3d
00000190: 5a81 993d d001 75bd 30e6 473d e7e9 883d
000001a0: f5bf 3cbd f6a2 62bd 8de5 aa3c 427b 26bc
000001b0: b20a 553d c1dd 443c 0ac2 38bd 05b8 c33d
000001c0: 599a 713d 91e6 973d 58c8 42bc f01d cf39
000001d0: e748 b0bc 5b24 69bd 6cdf 9bbc a2ec a8bd
000001e0: 4b8f 973d d587 57bd 98b2 60bd d835 a9bc
000001f0: 57c0 623c 400b 17bd ed01 c53c 18e0 bbbd
00000200: ce6c 5d3d 76a2 c5bb e122 54bd 1236 503c
00000210: 969b ad3d 62cc 1bbd 9698 423d 98e0 103d
00000220: 3ba8 563d cad4 5d3a b711 a03d a9ca 4dbc
00000230: fc3e a0bb afd4 93bd 668f 463d f598 bd3d
00000240: bb47 d0bc 3636 2a3d bf05 38bd e682 bc3d
00000250: 3508 f4bc 134e bbbc 4dcd 55bd cdb4 3d3d
00000260: 8852 90bd 4fb5 75bd 294c 1b3d f572 843d
00000270: bdc3 5f3d 734f a33c 42b7 af3d 738a d73c
00000280: f4f5 febb 5089 a2bd 78bf 5abc 0e50 95bd
00000290: 4dd1 88ba 76f4 7b3d 9461 27bc 7348 49bd
000002a0: b983 8a3d ffdd 8c3d b34e 443c 01ea 123c
000002b0: d34e 18bc 0fe9 c6bd 5f97 6fbc cc50 ee3c
000002c0: 6c1d 49bc 09e2 be3d c4a6 153d 2cd0 2d3c
000002d0: fede aa3d 262f 08bc 31fd bbbd 4d1d b8bb
000002e0: 36f7 a03c f29e 22bb 797c 7b3d 77ec 943d
000002f0: 8141 53bc cebd b8bd cdd2 c3bc 27db 33bd
00000300: 4642 b7bd d5ec 69bd 4854 803d dd93 7ebd
00000310: 7d50 9f3d 2f0b 073d adac 53bd dbe3 a83d
00000320: e0e2 9cbc 2e6d 44bd 3fd6 553c 1459 fc3b
00000330: d069 a5bd e0ca 82bd 5fe1 213d 860a 693d
00000340: cbee f93c 1c9e 47bd 57ff 0d3d fa45 51bb
00000350: e116 c03d ac40 a5bd c1ba d63c 317a 9bbd
00000360: 756b e23b c1af e23d ca3f 7d3c 1704 c2bc
00000370: 8613 3c3d 7383 543d 1062 0abd 3716 ca3d
00000380: 3e27 80bb 0142 25bd 27fd 8ebd bcd1 d1bc
00000390: a2c8 3c3d 63f2 2bbd b9a4 743c 57d1 93bd
000003a0: 1c16 2fbd a0e2 aabd 4373 4e3c bb23 a93d
000003b0: 341a 0fbb d6bc 49bd 1363 f13c b9e6 a43d
000003c0: 737b 533d 7c3a c03b d63c 8ebc 54b4 ddbc
000003d0: 6f3c 773d 0adc c53d e4a1 22bd 06e5 103d
000003e0: 00b3 493c aae5 4b3c cf38 913d 8113 903d
000003f0: 6770 8b3c 25c2 f0bc 3746 fa3c 709c 16bd

encoder_lstm1.weight_hh_l0 f4 [512, 128]
-0.074261 -0.012113007 -0.035321638 0.06473093 -0.077346124 0.008425377 -0.057076752 0.015499642
0.032949056 0.07343025 0.011570099 -0.013947914 -0.06643294 -0.0021650512 -0.0514857 0.08258228
0.017419381 0.037464295 -0.047965504 0.08235146 0.030426985 -0.03592143 -0.021826042 0.051638775
0.06662524 0.07113358 0.015904566 0.033442575 0.058550127 0.049174402 0.08532499 -0.020592531
-0.05961551 -0.08017371 -0.052020982 -0.05903965 -0.05054541 -0.08204814 0.0037068026 -0.033222534
0.08336669 0.013013104 -0.06635985 -0.027456813 -0.034344453 0.049789056 0.06711558 0.04616222
0.058215328 0.0026701058 0.040064197 -0.061877027 0.053461835 -0.087039426 0.062424555 -0.001299848
-0.02434238 -0.07371743 0.04491232 -0.010222928 0.044564933 0.08311141 -0.0036574372 -0.06561815
-0.071499616 -0.0391733 0.055025168 -0.06878905 0.059162818 0.03611126 0.021076277 0.075036936
-0.03154093 0.015303567 0.01628505 -0.05233675 0.040948536 0.07528736 0.017582834 -0.004579018
-0.07606806 -0.02293394 -0.03344159 -0.058373123 0.054755416 0.023494417 0.032316923 -0.011484919
0.077707514 -0.034139227 0.079005405 0.08173444 -0.027962027 0.0037592396 0.049528375 0.0484801
-0.053561796 0.029960856 0.05019159 -0.0062785456 -0.032949317 0.0066929217 -0.05861675 0.008410492
-0.037504755 -0.08901891 0.03503278 -0.0788275 0.067834884 -0.08588416 -0.066649176 0.07286553
0.07445304 -0.028984766 -0.089862265 -0.016356815 0.08547687 0.020586021 0.025387073 -0.014936167
0.071019314 0.018381778 0.00755303 0.03828284 0.07184323 0.07596816 -0.054165766 -0.057983432
0.015249467 0.0032438955 -0.031097155 -0.06292457 -0.018974489 0.021202723 -0.073593184 0.039339438
-0.04910809 -0.0024893105 0.020994479 0.032339003 0.0056112153 -0.018867033 0.02375037 -0.064167745
-0.066679955 0.008759219 -0.03776237 0.024196828 0.0017736801 0.025266992 0.03236088 0.074765235
-0.028215613 -0.04626628 0.07138126 -0.012612147 -0.04507978 0.04942314 -0.0428323 0.02622423
0.077484384 0.043220222 -0.051391527 0.043810595 -0.08366284 -0.0027996278 -0.04989192 0.06590468
-0.022444637 -0.0073506394 0.034021247 0.06541191 -0.024659999 -0.03884221 0.04598507 0.049344808
-0.018630145 0.0018965113 0.05446872 0.08454639 0.0057769716 0.073487684 -0.00063106377 0.06484637
-0.071699016 0.02912601 -0.088091455 -0.013456475 -0.009038921 0.05208521 -0.07950979 -0.07397564
-0.046229757 -0.0131528005 0.08310587 0.044940818 -0.05588374 -0.039769784 0.09671954 0.05249036
-0.0026723533 0.020709246 0.0878077 0.046440765 -0.048690345 -0.006175956 -0.063771516 -0.021715462
0.08640974 0.085007794 0.0028258853 -0.076445274 0.06212364 -0.027786613 0.054267794 0.0487127
-0.050794777 0.04459295 0.019336794 -0.036211703 0.020393923 0.00683112 -0.035158377 0.065604255
-0.06731588 -0.08446867 0.053024415 -0.06771349 -0.020154081 -0.053161003 0.039328996 -0.06801872
0.045210633 -0.035286438 0.082135335 0.0792908 0.051783804 -0.035527438 0.03613998 0.0055478737
0.016647995 0.02504641 0.013235097 -0.07627666 0.053570516 0.06690659 -0.06907035 0.048701983
-0.016092982 -0.02477061 0.08370074 0.056884844 -0.053135592 -0.07036603 -0.08362177 0.080899194
00000000: 2716 98bd a275 46bc 6cad 10bd a691 843d
00000010: a567 9ebd 980a 0a3c 50c9 69bd 36f2 7d3c
00000020: 97f5 063d 9962 963d 8390 3d3c cb85 64bc
00000030: fe0d 88bd 88e3 0dbb abe2 52bd e620 a93d
00000040: 17b3 8e3c 2974 193d 7a77 44bd e2a7 a83d
00000050: 0342 f93c 5922 13bd 87cc b2bc 2e83 533d
00000060: d072 883d 7bae 913d 4b4a 823c 15fb 083d
00000070: 42d2 6f3d 196b 493d debe ae3d abb1 a8bc
00000080: 652f 74bd 1d32 a4bd f413 55bd 8fd3 71bd
00000090: b408 4fbd db08 a8bd d4ed 723b 5a14 08bd
000000a0: 28bc aa3d ea34 553c ace7 87bd 1ced e0bc
000000b0: c5ac 0cbd 9cef 4b3d e573 893d 9914 3d3d
000000c0: 3273 6e3d f1fc 2e3b 5b1a 243d c472 7dbd
000000d0: ccfa 5a3d ba41 b2bd e4b0 7f3d a95f aaba
000000e0: ac69 c7bc 2af9 96bd fbf5 373d 117e 27bc
000000f0: b889 363d 5136 aa3d 9db1 6fbb cf62 86bd
00000100: 646e 92bd 2f74 20bd 1262 613d 46e1 8cbd
00000110: b654 723d 67e9 133d 28a8 ac3c f7ac 993d
00000120: 1031 01bd d0bb 7a3c 3a68 853c 0f5f 56bd
00000130: a7b9 273d 4230 9a3d e009 903c 960b 96bb
00000140: 92c9 9bbd f5df bbbc 0cfa 08bd a818 6fbd
00000150: 3747 603d 5d77 c03c c05e 043d 3e2b 3cbc
00000160: 1e25 9f3d 93d5 0bbd 96cd a13d 6364 a73d
00000170: 9f10 e5bc 935d 763b 44de 4a3d 1293 463d
00000180: 9d63 5bbd 7870 f53c b295 4d3d 42bc cdbb
00000190: ddf5 06bd 4c50 db3b 1e18 70bd 29cc 093c
000001a0: 969e 19bd 8c4f b6bd 887e 0f3d 5070 a1bd
000001b0: 04ed 8a3d 09e4 afbd 5d7f 88bd 863a 953d
000001c0: d67a 983d 7671 edbc b509 b8bd bafe 85bc
000001d0: 7f0e af3d 04a4 a83c 8df8 cf3c d3b6 74bc
000001e0: 9372 913d 6295 963c 687f f73b 78ce 1c3d
000001f0: 8b22 933d 3295 9b3d ecdc 5dbd 0980 6dbd
00000200: e7d8 793c 8997 543b 76bf febc 99de 80bd
00000210: 6370 9bbc 55b1 ad3c 06b8 96bd 6422 213d
00000220: 9125 49bd b323 23bb 9dfc ab3c e775 043d
00000230: 49de b73b 098f 9abc 2390 c23c 616a 83bd
00000240: 808f 88bd d482 0f3c b7ac 1abd 6d38 c63c
00000250: d47a e83a b9fc ce3c d88c 043d 841e 993d
00000260: 6e24 e7bc b681 3dbd 5730 923d 2ea3 4ebc
00000270: 93a5 38bd eb6f 4a3d ec70 2fbd 32d4 d63c
00000280: 22b0 9e3d b007 313d ec7f 52bd bd72 333d
00000290: 6c57 abbd f679 37bb 785b 4cbd 08f9 863d
000002a0: d1dd b7bc a2dd f0bb dd59 0b3d aef6 853d
000002b0: c403 cabc 0219 1fbd d75a 3c3d c81d 4a3d
000002c0: 3f9e 98bc 5c94 f83a 981a 5f3d a826 ad3d
000002d0: c04c bd3b b680 963d f96d 25ba 2cce 843d
000002e0: efd6 92bd ac99 ee3c 4b69 b4bd 8c78 5cbc
000002f0: fc17 14bc 4d57 553d 07d6 a2bd 8a80 97bd
00000300: 6a5b 3dbd d87e 57bc 6933 aa3d dd13 383d
00000310: 59e6 64bd a4e5 22bd e514 c63d 2200 573d
00000320: a622 2fbb 70a6 a93c 86d4 b33d ac38 3e3d
00000330: 876f 47bd ad5f cabb a49a 82bd a0e4 b1bc
00000340: 97f7 b03d 9118 ae3d 7d32 393b 578f 9cbd
00000350: 5c75 7e3d c0a0 e3bc e847 5e3d f886 473d
00000360: 2f0e 50bd 19a7 363d 3268 9e3c b952 14bd
00000370: 2811 a73c 96d7 df3b 3b02 10bd 865b 863d
00000380: e8dc 89bd e9fd acbd 2130 593d 5fad 8abd
00000390: 2c1a a5bc 5abf 59bd 7117 213d 664d 8bbd
000003a0: c92e 393d 8388 10bd 9236 a83d 3763 a23d
000003b0: 411b 543d 3885 11bd 8407 143d f0ca b53b
000003c0: 6061 883c 212e cd3c 05d8 583c f036 9cbd
000003d0: c26c 5b3d 5206 893d c174 8dbd bb7b 473d
000003e0: 6ed5 83bc bceb cabc 4b6b ab3d 1500 693d
000003f0: b5a4 59bd 111c 90bd e441 abbd 7aae a53d

encoder_lstm1.bias_ih_l0 f4 [512]
0.012685031 -0.025412062 -0.0057377657 -0.0096683465 -0.0075560817 -0.018581264 0.06912927 0.07785039
0.011884248 -0.06572358 -0.060371593 -0.088988364 -0.07943151 0.06863266 0.01185501 -0.051794156
-0.018872503 0.042844165 -0.05049971 -0.010782945 0.017403938 -0.06191596 -0.050093584 0.025235133
0.04121618 -0.01871268 -0.033373766 -0.02077464 0.028522106 -0.06484072 -0.04226495 0.048156034
0.021180663 0.008135306 -0.027480483 -0.039935578 0.027667303 -0.010228526 -0.094353564 0.053749137
0.016514426 0.03100266 0.056332212 -0.0057686805 -0.060813233 -0.033670608 0.0016245603 -0.065735966
-0.056960225 -0.05486995 -0.032108814 0.049234185 -0.03339729 -0.034168597 0.01112105 -0.08734609
0.070081405 -0.021047771 0.036319707 -0.07553243 0.039811563 0.046540357 -0.041747805 -0.023207108
0.03833037 -0.018869907 0.017937204 -0.0064974152 -0.055046707 -0.02614192 -0.048481237 0.06851548
-0.0812353 0.035072476 -0.005480542 -0.038328923 -0.059470344 0.037916776 -0.014691531 0.06221492
0.07936988 -0.06013718 -0.011289221 -0.0011012641 -0.07348515 -0.040908467 0.08571882 -0.010750139
-0.042955995 -0.023322644 -0.01610125 0.04682752 0.10172668 0.06133453 -0.032478902 -0.018941628
-0.032524962 0.006682829 0.0033548719 -0.04872758 0.06361349 -0.02555508 -0.007899614 -0.04691114
0.03777615 -0.06391651 -0.032876544 -0.083736256 0.03054752 -0.055788856 0.086870015 0.06476007
-0.09217299 0.018926779 -0.04151793 -0.07048924 0.07324541 0.0979641 0.032569464 -0.04145032
-0.05299459 0.043839406 -0.02419171 0.04734274 -0.06952865 0.011614011 -0.005045925 0.08143204
-0.050188582 0.006870355 -0.08594047 -0.03673446 -0.07580263 0.011515765 0.005605276 0.012392363
-0.06044035 0.07388971 -0.028419208 0.07791887 -0.020812161 -0.044930328 0.04655773 -0.05626722
-0.09899621 0.09168788 -0.04334868 -0.0489597 0.05023307 0.047375016 0.056504015 0.079484545
-0.04226672 0.044822313 -0.05295536 -0.07547746 0.046939664 -0.08073555 -0.07381628 0.053608805
0.05273938 0.08764613 0.062163062 0.06326713 -0.022985391 0.020222116 -0.09468746 -0.05037473
0.034227632 -0.044327673 0.029868107 0.038932662 -0.038606342 -0.01236677 0.02982068 0.032747608
-0.053383444 0.062315643 -0.015705742 0.015016048 -0.09100467 0.042565964 0.04179482 -0.07999471
0.015104468 -0.08580919 -0.031095443 -0.076454245 -0.08680018 -0.050664343 0.020474885 -0.0075341226
-0.015320208 0.055377387 -0.047621723 0.07367382 0.052347794 0.06217816 0.007414958 0.016861038
0.0064095836 -0.04118628 -0.064214274 0.10045371 0.019772656 -0.026760984 -0.05411863 -0.079862505
-0.05835327 0.026015457 -0.07987508 0.06171092 -0.05917814 0.030886699 -0.06306114 0.035651736
0.035840567 -0.046238616 -0.04297716 0.081414424 -0.05679113 0.06708647 0.029717647 0.0770413
-0.03360042 -0.01423607 -0.012911565 0.021584135 -0.0460145 -0.031336635 -0.007911167 -0.056877453
0.06607758 0.029600427 0.00060203206 -0.0074329535 0.04903274 0.06954449 0.050168976 0.092252314
0.06951027 -0.0028577202 -0.054954253 0.0005582956 -0.056755617 0.0521538 0.013949156 -0.023590151
-0.09247126 0.052242238 0.031065919 0.023055516 0.014658755 -0.04252494 0.026761005 -0.062359273
00000000: e0d4 4f3c f52c d0bc de03 bcbb fc67 1ebc
00000010: 0299 f7bb bc37 98bc a693 8d3d 0670 9f3d
00000020: 26b6 423c 169a 86bd 3448 77bd 883f b6bd
00000030: fdac a2bd 488f 8c3d 843b 423c 1c26 54bd
00000040: 829a 9abc 5d7d 2f3d c9d8 4ebd f3aa 30bc
00000050: b492 8e3c 979b 7dbd ee2e 4dbd e9b9 ce3c
00000060: 4cd2 283d 564b 99bc eeb2 08bd 942f aabc
00000070: 31a7 e93c 36cb 84bd 031e 2dbd 433f 453d
00000080: 1283 ad3c f249 053c c01e e1bc 7d93 23bd
00000090: 8aa6 e23c 8c95 27bc 713c c1bd 0e28 5c3d
000000a0: 4349 873c 4af9 fd3c 9bbc 663d 3307 bdbb
000000b0: 4c17 79bd 31ea 09bd 33ef d43a 94a0 86bd
000000c0: 204f 69bd 50bf 60bd 8884 03bd c9a9 493d
000000d0: 99cb 08bd 5ff4 0bbd 1135 363c 82e2 b2bd
000000e0: d786 8f3d 606c acbc f9c3 143d bfb0 9abd
000000f0: 7311 233d 1aa1 3e3d bfff 2abd d51c bebc
00000100: 4e00 1d3d 1095 9abc 0bf1 923c 45e8 d4bb
00000110: a878 61bd 9427 d6bc 4394 46bd d851 8c3d
00000120: b15e a6bd 28a8 0f3d 1e96 b3bb cafe 1cbd
00000130: 2d97 73bd 9f4e 1b3d bfb4 70bc 12d5 7e3d
00000140: ad8c a23d 6752 76bd 6df6 38bc 4b58 90ba
00000150: 627f 96bd a38f 27bd 598d af3d 5a21 30bc
00000160: a0f2 2fbd 210f bfbc c5e6 83bc 37ce 3f3d
00000170: 1456 d03d eb39 7b3d 9908 05bd 792b 9bbc
00000180: e538 05bd a2fb da3b 69dd 5b3b 9296 47bd
00000190: ca47 823d e358 d1bc 626d 01bc e525 40bd
000001a0: 2abb 1a3d a9e6 82bd 8ea9 06bd ea7d abbd
000001b0: cb3e fa3c db82 64bd e8e8 b13d eda0 843d
000001c0: 31c5 bcbd 550c 9b3c b40e 2abd aa5c 90bd
000001d0: b101 963d 67a1 c83d 8f67 053d d0c7 29bd
000001e0: db10 59bd f390 333d b12d c6bc 76ea 413d
000001f0: 0965 8ebd b148 3e3c 4958 a5bb d7c5 a63d
00000200: 8b92 4dbd b720 e13b 8f01 b0bd e076 16bd
00000210: 693e 9bbd 9fac 3c3c 77ac b73b 5609 4b3c
00000220: 4d90 77bd 7d53 973d 66cf e8bc ee93 9f3d
00000230: 447e aabc dd08 38bd 51b3 3e3d 7578 66bd
00000240: 86be cabd dbc6 bb3d 638e 31bd f789 48bd
00000250: 31c1 4d3d 4e0c 423d c170 673d cbc8 a23d
00000260: de1f 2dbd 9a97 373d b8e7 58bd ed93 9abd
00000270: ce43 403d ae58 a5bd fd2c 97bd e894 5b3d
00000280: 4005 583d d07f b33d b29e 7e3d 3292 813d
00000290: dc4b bcbc daa8 a53c 80eb c1bd bc55 4ebd
000002a0: 4632 0c3d ef90 35bd f6ad f43c db77 1f3d
000002b0: af21 1ebd fe9d 4abc 804a f43c 5b22 063d
000002c0: 99a8 5abd b03e 7f3d 54a9 80bc df05 763c
000002d0: a860 babd a659 2e3d 0c31 2b3d 44d4 a3bd
000002e0: bb78 773c bbbc afbd dfbb febc 0b94 9cbd
000002f0: 4bc4 b1bd 6a85 4fbd f2ba a73c cde0 f6bb
00000300: 9c01 7bbc 66d3 623d ff0e 43bd 4de2 963d
00000310: a46a 563d 87ae 7e3d 2df9 f23b 2920 8a3c
00000320: 7c07 d23b f2b2 28bd c682 83bd adba cd3d
00000330: 44fa a13c da39 dbbc 7fab 5dbd f48e a3bd
00000340: d703 6fbd 5e1e d53c 8c95 a3bd 97c4 7c3d
00000350: c764 72bd 1a06 fd3c 3326 81bd 8e07 123d
00000360: 8fcd 123d b464 3dbd d208 30bd 9bbc a63d
00000370: d19d 68bd a264 893d 6c72 f33c d4c7 9d3d
00000380: 98a0 09bd 683e 69bc 078b 53bc 36d1 b03c
00000390: b379 3cbd d85a 00bd d79d 01bc 55f8 68bd
000003a0: af53 873d 987c f23c b0d1 1d3a 2290 f3bb
000003b0: 8ed6 483d 576d 8e3d fc7d 4d3d c8ee bc3d
000003c0: 675b 8e3d 9748 3bbb b617 61bd 955a 123a
000003d0: 9478 68bd 399f 553d 008b 643c 2240 c1bc
000003e0: 9261 bdbd f5fb 553d f47d fe3c ecde bc3c
000003f0: 462b 703c a22e 2ebd e539 db3c 706c 7fbd

encoder_lstm1.bias_hh_l0 f4 [512]
0.016177513 -0.078883864 -0.013212407 0.031017752 -0.011202613 -0.0035405678 0.019536076 0.022703363
0.014536338 0.014669584 0.0023876047 -0.05050424 0.030175721 0.057751715 0.029297324 0.055249877
-0.021692421 0.028337149 0.060360063 0.064465806 -0.062491424 0.0051365066 -0.016306331 0.09005139
0.09045606 -0.003279007 -0.05807274 -0.03318652 -0.054572374 -0.0218253 -0.07942787 -0.036965538
0.080540195 -0.0016445582 -0.054369714 -0.067654714 0.05641547 0.016156593 -0.05190074 -0.0024479257
0.017149819 -0.023698445 0.06859816 0.06304565 0.02791874 0.049315747 0.084146574 -0.07644773
0.069566324 0.050947774 0.07449057 0.058551684 0.0008424925 -0.04480075 0.025854731 0.07069019
0.07451091 -0.07576436 -0.054192014 -0.011953825 -0.064147085 -0.017629249 0.06850487 -0.008540171
-0.058912773 -0.022885889 0.024810925 -0.06584144 -0.0006622297 0.004302309 0.08195886 -0.06818784
-0.05120198 -0.07689098 0.058116585 0.07918087 -0.006689144 0.09984619 -0.0621135 -0.08634014
0.041958243 0.0025552963 -0.011679191 0.009969722 0.06642372 -0.02107408 -0.0889924 -0.07132796
-0.09233293 0.06585346 0.063807935 0.056028765 -0.03710293 -0.077600606 -0.05561581 0.0658028
0.064728804 -0.042987935 -0.060770713 0.018571904 0.044816848 -0.047365405 -0.054457113 0.058175024
0.048768736 -0.07987229 -0.06135326 0.011177375 -0.04097545 -0.09146112 0.07163665 0.054892648
0.004074294 0.027039351 0.038329188 -0.045835506 0.042891197 0.08521547 0.02668488 -0.013009424
-0.04375164 -0.01932597 0.0902385 -0.015781986 -0.042693608 -0.0009381145 -0.06397939 -0.00911099
-0.072485164 0.04724934 -0.05068197 -0.03901674 -0.085309125 -0.040207468 0.045342017 0.01884936
-0.051077228 -0.016408259 -0.07818852 -0.08038417 0.0017274739 0.014898087 -0.07715878 0.07882589
-0.016192762 0.0009226746 0.008775744 -0.025206432 0.05058706 0.0185096 -0.012885607 0.04565638
0.02779804 0.03221843 0.059196293 0.07299545 -0.059153058 0.03530956 0.074120015 -0.06829896
-0.06622226 -0.051442448 -0.012798057 0.061363947 -0.049681004 0.07851233 0.030210206 0.0381646
-0.06574457 -0.0054098982 0.03269433 0.090830706 -0.039530147 -0.08004857 0.005774849 0.054434128
0.06450973 0.078382775 -0.032383844 -0.024553569 -0.089933686 -0.07206757 0.05492337 0.053700197
-0.060803223 -0.016058853 0.08900328 -0.026037253 0.03041012 0.045971304 0.06303471 -0.05716186
-0.06211193 0.07733873 -0.041283093 -0.08754453 -0.046914432 0.017023463 0.033311084 -0.028072005
0.016954223 0.06498277 -0.024317788 0.010016454 -0.05207627 0.058768246 0.022938753 0.041241154
-0.07488556 0.021950858 0.002390745 0.021134812 -0.07367379 -0.06832834 -0.044584416 0.022616195
0.054266922 0.013013649 -0.08575629 -0.018395543 0.0110451365 -0.09252654 -0.024046399 -0.09284395
0.01817214 -0.04430337 -0.05933046 -0.08417218 0.0005606684 0.024984138 0.07255736 0.029930137
0.0031510803 -0.054916464 0.035342447 0.043829426 -0.0056418614 0.05259037 0.05802177 -0.014232032
0.027048534 -0.02442016 0.08554059 0.018969586 -0.034906164 -0.06747949 -0.06745439 -0.051606447
0.047011957 0.06970635 0.01660089 -0.01018882 -0.033729628 0.025241503 -0.067691036 -0.080504425
00000000: b486 843c dd8d a1bd da78 58bc f118 fe3c
00000010: 2a8b 37bc df08 68bb 1f0a a03c 67fc b93c
00000020: d229 6e3c b258 703c 5c79 1c3b 89dd 4ebd
00000030: 1333 f73c 108d 6c3d f100 f03c b24d 623d
00000040: 4eb4 b1bc 4f23 e83c 1d3c 773d a606 843d
00000050: 02f7 7fbd 2450 a83b db94 85bc dd6c b83d
00000060: 0741 b93d 9ce4 56bb aedd 6dbd 97ee 07bd
00000070: 4887 5fbd f9ca b2bc 14ab a2bd 2d69 17bd
00000080: 42f2 a43d 378e d7ba c7b2 5ebd 8e8e 8abd
00000090: e813 673d d55a 843c df95 54bd 616d 20bb
000000a0: c77d 8c3c 3e23 c2bc 317d 8c3d 141e 813d
000000b0: d7b5 e43c 4fff 493d 0a55 ac3d a190 9cbd
000000c0: ca78 8e3d 9dae 503d 838e 983d e4d3 6f3d
000000d0: b7da 5c3a fe80 37bd 4dcd d33c 05c6 903d
000000e0: 2d99 983d 582a 9bbd 72f8 5dbd fad9 43bc
000000f0: 8c5f 83bd 376b 90bc 484c 8c3d 13ec 0bbc
00000100: 854e 71bd 307b bbbc 4840 cb3c e0d7 86bd
00000110: 7c99 2dba 62fa 8c3b 0cda a73d 11a6 8bbd
00000120: 2bb9 51bd 0579 9dbd a80b 6e3d 9429 a23d
00000130: 9b30 dbbb 297c cc3d ba6a 7ebd 19d3 b0bd
00000140: 68dc 2b3d c276 273b 145a 3fbc 0b58 233c
00000150: 2909 883d 8da3 acbc a641 b6bd 6514 92bd
00000160: 0c19 bdbd 2ede 863d bcad 823d 6b7e 653d
00000170: 3ef9 17bd 11ed 9ebd 67cd 63bd 9ec3 863d
00000180: 8990 843d 1e14 30bd b6ea 78bd 1b24 983c
00000190: df91 373d 3a02 42bd 6c0e 5fbd ef48 6e3d
000001a0: bac1 473d 1594 a3bd 8e4d 7bbd 4f21 373c
000001b0: e0d5 27bd f84f bbbd 3cb6 923d 1dd7 603d
000001c0: a881 853b a181 dd3c 11ff 1c3d 03be 3bbd
000001d0: aeae 2f3d 7385 ae3d 409a da3c 7b25 55bc
000001e0: eb34 33bd 7f51 9ebc f6ce b83d 3949 81bc
000001f0: 7edf 2ebd cceb 75ba a007 83bd 4346 15bc
00000200: 1a73 94bd 8688 413d e697 4fbd 04d0 1fbd
00000210: 8db6 aebd 96b0 24bd 8db8 393d f969 9a3c
00000220: 5b36 51bd 9d6a 86bc 4e21 a0bd 75a0 a4bd
00000230: 686c e23a 1b17 743c 6c05 9ebd 786f a13d
00000240: afa6 84bc a5df 713a 23c8 0f3c b87d cebc
00000250: 6134 4f3d 72a1 973c 271e 53bc 2f02 3b3d
00000260: b7b8 e33c 79f7 033d d077 723d a37e 953d
00000270: 7a4a 72bd c2a0 103d 3ccc 973d 53e0 8bbd
00000280: 899f 87bd 51b5 52bd f1ae 51bc c358 7b3d
00000290: 4f7e 4bbd 13cb a03d 657b f73c 7c52 1c3d
000002a0: 17a5 86bd 8445 b1bb 7dea 053d 7305 ba3d
000002b0: 5dea 21bd 81f0 a3bd f23a bd3b 52f6 5e3d
000002c0: ad1d 843d 2687 a03d eca4 04bd 9124 c9bc
000002d0: 272f b8bd 2a98 93bd 54f7 603d bdf4 5b3d
000002e0: cd0c 79bd db8d 83bc 5a47 b63d 144c d5bc
000002f0: a51e f93c 684c 3c3d 5818 813d 8e22 6abd
00000300: 1469 7ebd c563 9e3d 7618 29bd 8c4a b3bd
00000310: 5929 40bd ca74 8b3c 3471 083d 43f7 e5bc
00000320: 95e3 8a3c b015 853d 1936 c7bc 0e1c 243c
00000330: ed4d 55bd f9b6 703d 0dea bb3c 7cec 283d
00000340: 9a5d 99bd 49d2 b33c 0cae 1c3b ea22 ad3c
00000350: 49e2 96bd bbef 8bbd 269e 36bd 9945 b93c
00000360: fe46 5e3d 3337 553c fea0 afbd 40b2 96bc
00000370: a9f6 343c 8e7e bdbd f4fc c4bc f824 bebd
00000380: bddd 943c 7377 35bd 7f04 73bd 7762 acbd
00000390: d2f9 123a 89ab cc3c f498 943d 0c30 f53c
000003a0: 5b82 4e3b 16f0 60bd 3ec3 103d 7c86 333d
000003b0: 5ddf b8bb 0069 573d 3ca8 6d3d 782d 69bc
000003c0: e394 dd3c ca0c c8bc e82f af3d 1b66 9b3c
000003d0: c4f9 0ebd b032 8abd 8725 8abd 4861 53bd
000003e0: 9c8f 403d 34c2 8e3d 97fe 873c 02ef 26bc
000003f0: 1428 0abd 45c7 ce3c 99a1 8abd 81df a4bd

encoder_lstm2.weight_ih_l0 f4 [256, 128]
-0.0491843 -0.03267778 0.058908436 0.069494225 0.008807422 0.06756282 0.020770164 0.13125066
0.1029679 -0.0017548802 -0.13547945 0.0378322 -0.0934425 -0.09486745 -0.04990752 -0.09493552
0.040133353 -0.0797709 0.13541652 0.09771306 -0.064044945 0.0004599717 0.026255313 -0.10244655
0.10305594 0.11433668 0.11154361 0.06572135 -0.07521953 0.042614453 0.13064824 -0.013961507
0.08714368 0.052275293 0.113186486 -0.09999203 -0.13126479 0.06679616 -0.0023137925 -0.12088183
-0.101983264 0.029906092 0.001412075 -0.08800501 -0.08671687 -0.045777056 -0.055469785 0.1012872
-0.09504514 0.037924528 0.10577941 0.08789412 0.07708349 0.0814842 0.033536565 -0.045461193
0.025667451 0.083154485 -0.06353785 -0.07350593 -0.055666335 0.0532374 -0.035876613 0.119999945
0.12018706 -0.10840153 -0.0033646866 0.09766559 -0.025142487 0.10545326 -0.09868404 0.004802355
0.016188757 -0.07110805 0.064245634 0.036591947 -0.026314275 -0.09003269 -0.0541933 -0.100704424
-0.008917048 0.1279534 -0.029271705 0.07001967 -0.12363613 -0.04557045 -0.025002714 -0.024488151
-0.023764383 -0.07839419 0.0226168 -0.07003985 0.0028625887 0.0112610515 -0.096647374 -0.015019176
-0.028876124 0.007494095 0.08124603 -0.10831189 -0.010661125 -0.047802646 -0.013092652 -0.08085599
-0.108572505 0.053952366 0.11865354 0.08142824 -0.0075846403 0.06388584 -0.09297311 -0.070685826
0.074843735 0.047596607 0.06966366 -0.07343713 -0.05297572 0.10421109 0.087183505 0.06402554
-0.0788452 -0.013725693 -0.0001597257 -0.012884329 0.04264839 -0.10781687 -0.006676459 0.015618157
-0.07132924 -0.014577295 -0.030598447 0.03848986 0.0455877 -0.14771602 0.08854798 0.0033840477
0.080857076 0.022128344 -0.15002784 0.07932018 0.073623374 -0.12639162 -0.10741375 0.12885787
0.033418752 0.02984788 -0.0066761863 0.12003821 0.108993135 0.06821705 0.012308736 0.013170424
0.02046355 0.063229494 0.061380174 0.0075701363 0.11771836 0.048914853 -0.11081017 -0.098961264
-0.038533486 -0.07886623 0.09105154 0.07513844 -0.067121014 0.05557523 0.000962099 0.095531926
-0.071015894 -0.072414145 -0.0926524 0.09394277 -0.025692675 0.07070698 -0.08584739 0.13529493
0.111565545 -0.114097096 -0.106002554 0.015003071 0.04935487 -0.019571899 0.042278204 -0.08626746
-0.07006718 -0.03874103 -0.060267992 -0.06795324 -0.11172948 -0.09976558 -0.058018338 -0.07876656
-0.029765433 -0.10530186 -0.021402381 0.028404843 -0.08023323 -0.13293217 0.07838464 -0.087664224
-0.114039145 0.027725855 -0.061469167 -0.033391193 -0.030439068 0.08119862 0.08044034 -0.011941271
-0.054935977 -0.072285585 0.025674965 0.035819303 0.029632196 0.08016432 -0.09707544 -0.060261175
-0.05373529 -0.055705473 0.094756626 0.076206125 -0.014488311 0.08999594 -0.055579565 0.008622029
-0.09441716 0.02471646 0.022067243 0.109091334 -0.06927143 0.045901928 0.05171717 0.081859626
0.059149615 0.01149829 0.021903705 0.08909684 -0.028079564 0.08470379 0.10499959 -0.045648277
-0.054096878 0.13133262 -0.02901565 -0.11588374 0.11957496 -0.063670434 -0.097488575 -0.08820116
0.05137515 -0.115082584 -0.021274332 0.027517969 0.021672275 -0.016977437 0.041802812 -0.13167422
00000000: 7a75 49bd 23d9 05bd f949 713d fd52 8e3d
00000010: 014d 103c 605e 8a3d 3126 aa3c 9366 063e
00000020: d6e0 d23d 0204 e6ba 20bb 0abe f0f5 1a3d
00000030: c85e bfbd de49 c2bd d46b 4cbd 8e6d c2bd
00000040: df62 243d ed5e a3bd a1aa 0a3e c91d c83d
00000050: ff29 83bd 5b28 f139 6215 d73c 7fcf d1bd
00000060: fe0e d33d 5929 ea3d fa70 e43d ea98 863d
00000070: b20c 9abd 7e8c 2e3d a7c8 053e cebe 64bc
00000080: 6378 b23d 9e1e 563d 51ce e73d 9fc8 ccbd
00000090: 476a 06be 6dcc 883d ffa2 17bb e590 f7bd
000000a0: 9adc d0bd 9ffd f43c 6015 b93a f83b b4bd
000000b0: 9d98 b1bd b980 3bbd 4934 63bd aa6f cf3d
000000c0: 07a7 c2bd c056 1b3d e0a2 d83d d501 b43d
000000d0: f3dd 9d3d 30e1 a63d a35d 093d 8435 3abd
000000e0: 8c44 d23c e64c aa3d 2220 82bd 478a 96bd
000000f0: 6202 64bd 760f 5a3d 5bf3 12bd 88c2 f53d
00000100: a224 f63d 9f01 debd 1382 5cbb e604 c83d
00000110: 9ef7 cdbc e1f7 d73d dc1a cabd 135d 9d3b
00000120: 499e 843c 19a1 91bd 3793 833d 70e1 153d
00000130: 0991 d7bc 0f63 b8bd cbf9 5dbd 1f3e cebd
00000140: cf18 12bc 3706 033e 37cb efbc 7966 8f3d
00000150: f034 fdbd 15a8 3abd 7ed2 ccbc 609b c8bc
00000160: 86ad c2bc 228d a0bd de46 b93c 0e71 8fbd
00000170: 459a 3b3b 4680 383c 0fef c5bd fd12 76bc
00000180: 9f8d ecbc 0691 f53b 5264 a63d a0d2 ddbd
00000190: 00ac 2ebc b5cc 43bd 9082 56bc d397 a5bd
000001a0: 435b debd 28fd 5c3d a100 f33d d9c3 a63d
000001b0: 9388 f8bb 94d6 823d b068 bebd bbc3 90bd
000001c0: ac47 993d a9f4 423d d2ab 8e3d 3566 96bd
000001d0: 12fd 58bd a06c d53d 448d b23d d31f 833d
000001e0: 9879 a1bd bbe1 60bc 0b7c 27b9 cb18 53bc
000001f0: 14b0 2e3d 17cf dcbd 33c6 dabb 4ce3 7f3c
00000200: 1115 92bd 9bd5 6ebc 98a9 fabc 8ba7 1d3d
00000210: 2bba 3a3d de42 17be a558 b53d e6c6 5d3b
00000220: 6598 a53d 8046 b53c e6a0 19be 9e72 a23d
00000230: dac7 963d ce6c 01be bdfb dbbd 51f3 033e
00000240: 1ae2 083d 8b83 f43c e9c3 dabb 98d6 f53d
00000250: cb37 df3d 61b5 8b3d 95aa 493c c3c8 573c
00000260: 2da3 a73c 777e 813d c769 7b3d e80e f83b
00000270: 5316 f13d f15a 483d 71f0 e2bd 34ac cabd
00000280: 4ad5 1dbd 9e84 a1bd 3b79 ba3d 2fe2 993d
00000290: be76 89bd daa2 633d 5f35 7c3a 3ea6 c33d
000002a0: c870 91bd de4d 94bd 8bc0 bdbd 1165 c03d
000002b0: 7279 d2bc d2ce 903d c2d0 afbd c18a 0a3e
000002c0: 7a7c e43d bdab e9bd de17 d9bd 71cf 753c
000002d0: 5528 4a3d 3f55 a0bc e92b 2d3d feac b0bd
000002e0: 627f 8fbd eaae 1ebd 92db 76bd 112b 8bbd
000002f0: 6dd2 e4bd e551 ccbd a3a4 6dbd 5d50 a1bd
00000300: a3d6 f3bc 80a8 d7bd 0c54 afbc 46b1 e83c
00000310: 5251 a4bd 5f1f 08be 2088 a03d 4d89 b3bd
00000320: 5b8d e9bd 5521 e33c 18c7 7bbd 34c5 08bd
00000330: 5a5b f9bc 764b a63d e8bd a43d 52a5 43bc
00000340: 8c04 61bd 770a 94bd 4e54 d23c 43b7 123d
00000350: 38bf f23c 312d a43d 7dcf c6bd 6cd4 76bd
00000360: 8919 5cbd 6c2b 64bd c30f c23d f511 9c3d
00000370: 6160 6dbc cb4f b83d 66a7 63bd 6943 0d3c
00000380: c95d c1bd 2c7a ca3c 5dc6 b43c 476b df3d
00000390: 2ede 8dbd a903 3c3d 62d5 533d 05a6 a73d
000003a0: de46 723d 5363 3c3c 666f b33c 6778 b63d
000003b0: 1d07 e6bc 2e79 ad3d 060a d73d b0f9 3abd
000003c0: b094 5dbd 0f7c 063e 3ab2 edbc 7454 edbd
000003d0: b7e3 f43d a565 82bd 17a8 c7bd cfa2 b4bd
000003e0: c06e 523d 6bb0 ebbd 8247 aebc 5d6d e13c
000003f0: 0e8a b13c 4414 8bbc 6d39 2b3d 9bd5 06be

encoder_lstm2.weight_hh_l0 f4 [256, 64]
0.025797438 -0.04996272 -0.005630501 -0.103186905 -0.072691 -0.06802321 -0.0965662 0.10691796
-0.0013852236 0.08135711 -0.022592494 -0.12510453 0.05095651 0.09146585 0.09059627 -0.025548775
0.049933784 -0.08412471 -0.07498507 0.0518127 0.060136322 -0.025105605 -0.047755364 0.011218858
-0.008838329 0.04437886 0.0031496508 0.057289105 0.044949397 0.06163058 -0.06620516 -0.029154047
0.021929273 -0.06523245 0.0060955393 0.02495856 0.011925194 -0.051800467 -0.061089676 0.058164842
-0.10641842 -0.052913833 0.011815993 0.08245419 -0.055399526 -0.13913293 0.04647557 0.02509792
0.055861242 -0.044535797 0.030805146 0.01381796 0.13878585 0.08491466 0.095641606 0.0890505
0.0011486649 0.018044682 -0.09953793 0.082358405 0.0837189 -0.10764769 0.0061721294 -0.012461068
-0.015285567 -0.0726973 -0.041890375 -0.002058723 -0.043350097 0.072654866 0.050881654 -0.0037737638
0.044518046 0.015158743 0.04145701 -0.07843533 -0.0042387415 -0.08064102 -0.053360812 -0.07419984
0.009459821 -0.025520286 0.13057321 -0.116738744 -0.112445734 -0.15403445 0.088923916 0.006926667
-0.024678124 -0.09564003 0.08820179 0.06894072 -0.032700546 -0.026976427 0.068193495 0.07462099
-0.04507559 -0.040728487 -0.10221979 0.020270454 -0.04470917 0.05405455 0.099641144 0.054651592
-0.08781708 -0.06843434 0.13895229 -0.054292027 -0.07846017 0.06730656 0.12653963 0.01683196
-0.14227024 0.017805364 0.112564944 -0.08576778 0.12165067 -0.03697206 -0.0705465 -0.083605826
0.1382207 -0.022916222 0.006797887 0.0844058 -0.13127898 0.022049697 0.0047185356 0.015315227
0.025273759 0.02809389 0.01619853 -0.04125222 -0.053620007 0.056834664 0.050252732 0.07966282
-0.112460844 0.07217497 -0.12379268 -0.109100476 0.05695741 -0.06933302 0.07797776 0.013945927
-0.035062436 -0.1242976 0.027563589 -0.036505513 -0.11764321 0.07801781 0.07256309 0.041215453
-0.067065105 0.056298487 0.052999843 -0.08786392 -0.009852944 0.08965575 -0.12306582 -0.0135169905
-0.04215596 -0.07906732 0.11613664 0.019261224 -0.04085803 0.11087466 0.08016778 0.031598594
-0.006167306 0.008592355 -0.08888715 -0.014357629 0.12194789 0.09270837 -0.0013657495 -0.0053918925
-0.06466406 -0.03649983 -0.11537668 0.12344681 -0.1310365 0.08761082 -0.018788967 -0.024852252
-0.053943045 0.09530763 -0.10967505 -0.056290872 -0.05710819 0.046000425 -0.0027436856 0.05530467
0.014869208 -0.026825245 -0.08183729 0.08953537 -0.07891025 -0.10128552 0.058347657 -0.0440984
-0.11376659 -0.0067650643 0.11277467 -0.046801053 -0.11039306 0.024963507 -0.110570885 -0.09663428
0.09463656 0.055828243 0.094216704 0.07283832 0.0020730023 0.03026665 -0.038541198 0.11974744
0.09192648 -0.10584169 -0.019994019 -0.017209696 -0.0887808 0.06283311 -0.11965901 0.03860922
-0.06178626 -0.09960211 0.0061666896 -0.083772905 -0.08120579 0.09057583 -0.1275449 0.043902475
0.0048139044 0.0864106 0.044414792 0.0565818 -0.0029123905 -0.013872322 0.043158066 -0.0018229933
-0.067390084 0.061511405 0.11245813 0.117454685 -0.008214499 0.004643332 0.045071594 -0.054770872
0.1066412 0.004074729 0.019186916 -0.03249664 0.08987083 -0.08898431 -0.0042919246 -0.014505397
00000000: 2655 d33c b6a5 4cbd 1180 b8bb a853 d3bd
00000010: 05df 94bd c14f 8bbd 80c4 c5bd cef7 da3d
00000020: 6490 b5ba 8e9e a63d e513 b9bc 671b 00be
00000030: c6b7 503d 7352 bb3d 8a8a b93d aa4b d1bc
00000040: 5e87 4c3d 9349 acbd c691 99bd 8e39 543d
00000050: 8151 763d 45aa cdbc 219b 43bd 4dcf 373c
00000060: a4ce 10bc 9cc6 353d 5f6a 4e3b fba7 6a3d
00000070: dc1c 383d 5970 7c3d 9296 87bd 78d4 eebc
00000080: 05a5 b33c 9798 85bd 17bd c73b e575 cc3c
00000090: e461 433c ba2c 54bd 2b39 7abd 423e 6e3d
000000a0: e7f1 d9bd 2dbc 58bd de97 413c bedd a83d
000000b0: 9dea 62bd dd78 0ebe 2b5d 3e3d 279a cd3c
000000c0: c2ce 643d 2b6b 36bd 135b fc3c ba64 623c
000000d0: e11d 0e3e bde7 ad3d bfdf c33d 1c60 b63d
000000e0: cc8e 963a 71d2 933c 8bda cbbd 86ab a83d
000000f0: d174 ab3d 6476 dcbd 933f ca3b 8229 4cbc
00000100: 5170 7abc 52e2 94bd 3e95 2bbd a4eb 06bb
00000110: df8f 31bd 13cc 943d 4869 503d 4051 77bb
00000120: 8e58 363d 605c 783c d3ce 293d b4a2 a0bd
00000130: 24e5 8abb 1e27 a5bd de90 5abd 16f6 97bd
00000140: 5dfd 1a3c eb0f d1bc fcb4 053e b914 efbd
00000150: f349 e6bd 35bb 1dbe be1d b63d 18f9 e23b
00000160: c729 cabc ecde c3bd 24a3 b43d cb30 8d3d
00000170: 02f1 05bd abfd dcbc 08a9 8b3d e4d2 983d
00000180: 2fa1 38bd ead2 26bd 9c58 d1bd 390e a63c
00000190: f620 37bd 4e68 5d3d a810 cc3d 59da 5f3d
000001a0: 71d9 b3bd 4e27 8cbd 8249 0e3e 5161 5ebd
000001b0: baaf a0bd 06d8 893d 9b93 013e 2ee3 893c
000001c0: 4aaf 11be 8edc 913c 7388 e63d 05a7 afbd
000001d0: fd23 f93d 0470 17bd af7a 90bd 8839 abbd
000001e0: ba89 0d3e cdba bbbc cfc0 de3b f3dc ac3d
000001f0: ff6d 06be 91a1 b43c f29d 9a3b b8ec 7a3c
00000200: ea0a cf3c 2825 e63c c8b2 843c 16f8 28bd
00000210: a7a0 5bbd 77cb 683d cfd5 4d3d 4326 a33d
00000220: df51 e6bd 78d0 933d 0487 fdbd 1270 dfbd
00000230: 2c4c 693d 78fe 8dbd ceb2 9f3d 757d 643c
00000240: a19d 0fbd bd8f febd 09cd e13c ce86 15bd
00000250: ecee f0bd cdc7 9f3d f59b 943d 89d1 283d
00000260: 6e59 89bd 3e99 663d 5d16 593d 00f2 b3bd
00000270: 3e6e 21bc 6f9d b73d ef09 fcbd 5e76 5dbc
00000280: baab 2cbd 0cee a1bd 0cd9 ed3d b7c9 9d3c
00000290: c05a 27bd 4112 e33d 012f a43d 876d 013d
000002a0: 1d17 cabb f3c6 0c3c 770a b6bd 433c 6bbc
000002b0: d1bf f93d e3dd bd3d f302 b3ba 79ae b0bb
000002c0: 976e 84bd d980 15bd 9c4a ecbd aed1 fc3d
000002d0: 6f2e 06be 4d6d b33d 52eb 99bc f396 cbbc
000002e0: 62f3 5cbd a630 c33d 509d e0bd 4291 66bd
000002f0: 47ea 69bd f16a 3c3d 68cf 33bb 2687 623d
00000300: fb9d 733c 9ec0 dbbc 4f9a a7bd 525e b73d
00000310: b29b a1bd c86e cfbd f4fd 6e3d 86a0 34bd
00000320: 75fe e8bd 79ad ddbb 68f6 e63d 76b2 3fbd
00000330: c215 e2bd 4580 cc3c fd72 e2bd 32e8 c5bd
00000340: d0d0 c13d 28ac 643d b0f4 c03d 422c 953d
00000350: 35db 073b c4f1 f73c 60dd 1dbd 253e f53d
00000360: f343 bc3d 87c3 d8bd 7fca a3bc 59fb 8cbc
00000370: b5d2 b5bd a5ae 803d c80f f5bd b424 1e3d
00000380: 9713 7dbd 31fc cbbd f111 ca3b 2191 abbd
00000390: 394f a6bd d27f b93d 219b 02be 15d3 333d
000003a0: f5bd 9d3b 0af8 b03d 49ec 353d 51c2 673d
000003b0: cedd 3ebb bc48 63bc 83c6 303d 81f1 eeba
000003c0: d003 8abd 62f3 7b3d 7350 e63d 158c f03d
000003d0: 1b96 06bc 1827 983b fe9c 383d 6c57 60bd
000003e0: b466 da3d 4e85 853b e12d 9d3c 321b 05bd
000003f0: 330e b83d 683d b6bd 46a3 8cbb 0ba8 6dbc

encoder_lstm2.bias_ih_l0 f4 [256]
0.009708468 0.090586275 -0.065136604 0.0041545923 0.06713056 -0.111636944 0.023002336 0.10676117
0.060032167 -0.07084414 0.10127089 -0.07444279 0.09703565 0.0856699 0.07400224 0.036143586
0.102693744 -0.048401576 -0.038348205 -0.0596748 0.08709687 -0.044885416 -0.08877129 0.13680035
0.08504937 -0.06992488 -0.09268781 0.09153084 -0.0059873406 0.018672837 0.079727575 0.019831374
0.12028325 -0.036846053 0.11418622 0.022847455 0.09773634 0.08856178 -0.1208323 -0.051131316
-0.015987393 -0.07532479 -0.055137575 0.019143159 -0.018066268 0.008856799 0.0944871 0.08879458
-0.08791888 0.12123852 0.02383047 0.11692277 0.13588698 0.10950921 0.11578857 -0.0005277406
0.06659272 0.06820793 0.087223455 -0.0033466218 -0.068148546 0.042290937 0.0014757137 -0.062396437
-0.09332375 0.028224599 0.05393636 0.08219184 -0.018183347 -0.06736722 0.10237318 0.0096479505
-0.12776713 0.05160742 -0.08619485 -0.057482228 -0.023657298 0.0661123 -0.026468458 0.013911008
0.018753774 -0.016032636 -0.072866365 -0.086550616 0.1078167 -0.065897286 -0.028709026 -0.062088806
0.002421989 0.06948778 0.06884105 0.030702481 0.1004407 -0.06374945 0.017731337 -0.103809796
0.107345395 -0.05542227 0.116550386 -0.035367563 0.07378245 0.08591817 -0.042441715 0.059291944
-0.05116426 0.10298542 0.109850295 0.0011830172 -0.11628675 0.09577559 0.078719884 -0.058463786
0.055373605 0.0779468 -0.022509098 0.07812018 0.07207967 -0.1194173 0.1167569 -0.052711368
0.031663135 0.0077374023 0.027353995 -0.026968306 -0.043984592 -0.09236554 0.09722183 0.114053875
-0.10677949 -0.07633246 -0.044900127 -0.03380432 0.11775717 0.0563786 -0.024272857 0.010084352
-0.015266832 0.0092627425 0.08190172 -0.024524134 -0.047270276 -0.041301414 0.109602675 -0.11162271
-0.045398414 -0.023590777 0.02410208 0.030256871 0.055638768 0.091125704 0.0723142 -0.13033134
-0.089417666 -0.10399831 -0.119603336 0.10802086 0.062209513 -0.09028353 -0.09095098 0.020310245
0.011738434 0.031337045 -0.1231964 -0.053888224 -0.026981508 0.08090791 -0.037063483 -0.10676041
1.3141631e-05 -0.088545315 -0.018616432 0.05141505 0.090283625 -0.10455551 0.11752734 0.08452676
-0.03174405 -0.024037177 0.06601909 -0.051354524 0.12878907 -0.10113278 -0.06575506 0.0984067
0.009155495 -0.036589004 0.004357209 -0.09848152 -0.067371786 0.055541348 -0.083656915 0.09022889
-0.05798337 0.072962105 0.019053964 -0.07770657 0.025768321 -0.10051529 0.07746017 -0.113361865
0.036172308 -0.09394417 -0.068691246 -0.09069915 0.103026845 -0.015861282 0.056968372 -0.12573731
-0.08518098 -0.096181475 -0.08664241 0.08203192 0.055552065 0.07077528 -0.04021749 -0.052396894
0.11886465 -0.09294293 -0.10718147 0.041736085 0.025484113 -0.0117898835 -0.09045625 -0.09438035
0.030419292 0.053958498 -0.029951343 0.052044865 -0.097610466 0.08129716 0.09463644 0.02911732
0.060689908 -0.086018994 -0.03710354 -0.015816329 0.002002139 -0.0025087516 -0.09004225 0.06143206
-0.04447899 0.043920066 0.045490846 -0.067543395 -0.020890009 -0.08657371 0.015619004 0.05477566
-0.01941585 -0.06347193 -0.12967296 -0.13867721 0.07528143 0.06124821 -0.07668138 0.013717643
00000000: 4410 1f3c 4c85 b93d 5766 85bd 3f23 883b
00000010: bf7b 893d e9a1 e4bd 656f bc3c 9aa5 da3d
00000020: 4ae4 753d bc16 91bd 1d67 cf3d 7675 98bd
00000030: a0ba c63d b373 af3d 7d8e 973d 4c0b 143d
00000040: 1951 d23d bb40 46bd 0213 1dbd 906d 74bd
00000050: d85f b23d c5d9 37bd b9cd b5bd 6415 0c3e
00000060: 5d2e ae3d c734 8fbd 1bd3 bdbd 8574 bb3d
00000070: 7431 c4bb c7f7 983c 3648 a33d 6875 a23c
00000080: 1157 f63d e3eb 16bd 77da e93d 962a bb3c
00000090: fd29 c83d e15f b53d ed76 f7bd 126f 51bd
000000a0: fef7 82bc e243 9abd f0d7 61bd 1dd2 9c3c
000000b0: b6ff 93bc 1c1c 113c 7482 c13d efd9 b53d
000000c0: d00e b4bd e74b f83d 1e38 c33c 3575 ef3d
000000d0: f525 0b3e 5d46 e03d 8f22 ed3d 1258 0aba
000000e0: c461 883d 99b0 8b3d 36a2 b23d ff52 5bbb
000000f0: 7791 8bbd 4339 2d3d bc6c c13a 6893 7fbd
00000100: 8620 bfbd 4637 e73c 5fec 5c3d 3254 a83d
00000110: 3ef5 94bc d3f7 89bd 08a9 d13d 7012 1e3c
00000120: 63d5 02be 4d62 533d ed86 b0bd 7c72 6bbd
00000130: f3cc c1bc e365 873d 61d4 d8bc ffea 633c
00000140: 84a1 993c e056 83bc f63a 95bd 7341 b1bd
00000150: 01cf dc3d 28f5 86bd 312f ebbc d550 7ebd
00000160: 3cba 1e3b 9c4f 8e3d 89fc 8c3d c583 fb3c
00000170: dbb3 cd3d 128f 82bd 4f41 913c 3b9a d4bd
00000180: e7d7 db3d 7602 63bd f8b1 ee3d 94dd 10bd
00000190: 411b 973d def5 af3d 5dd7 2dbd 1cdc 723d
000001a0: 9d91 51bd 05ea d23d 31f9 e03d 780f 9b3a
000001b0: bf27 eebd fe25 c43d e437 a13d b977 6fbd
000001c0: 6fcf 623d 92a2 9f3d 0065 b8bc 79fd 9f3d
000001d0: 829e 933d 0f91 f4bd 3e1e ef3d e0e7 57bd
000001e0: 34b1 013d 098a fd3b 7c15 e03c a3ec dcbc
000001f0: 3029 34bd 252a bdbd 3d1c c73d 1495 e93d
00000200: 35af dabd 3154 9cbd 32e9 37bd 6676 0abd
00000210: ac2a f13d 3fed 663d dfd7 c6bc d738 253c
00000220: bc21 7abc c2c2 173c 17bc a73d d6e6 c8bc
00000230: 7a9e 41bd ac2b 29bd 5e77 e03d 739a e4bd
00000240: b0f3 39bd 7241 c1bc ba71 c53c 42dd f73c
00000250: 7ae5 633d 1da0 ba3d 7819 943d 9475 05be
00000260: 9c20 b7bd 11fd d4bd 98f2 f4bd 0a3a dd3d
00000270: 67cf 7e3d 92e6 b8bd 8244 babd ac61 a63c
00000280: 9052 403c 465b 003d 654e fcbd e6b9 5cbd
00000290: 5308 ddbc 0cb3 a53d e1cf 17bd 34a5 dabd
000002a0: e07a 5c37 3f57 b5bd 7d81 98bc 9698 523d
000002b0: 9fe6 b83d 3321 d6bd 2db2 f03d 5e1c ad3d
000002c0: 0d06 02bd 9de9 c4bc 0435 873d 1f59 52bd
000002d0: 48e1 033e b41e cfbd 97aa 86bd 7489 c93d
000002e0: ee00 163c 5ade 15bd ebc6 8e3b aeb0 c9bd
000002f0: 38fa 89bd 537f 633d 5154 abbd edc9 b83d
00000300: f87f 6dbd 286d 953d 0f17 9c3c 9f24 9fbd
00000310: 1618 d33c f6da cdbd 70a3 9e3d 442a e8bd
00000320: 6a29 143d cd65 c0bd ffad 8cbd 7ac0 b9bd
00000330: bdff d23d 85ef 81bc ab57 693d 48c1 00be
00000340: 5e73 aebd cbfa c4bd 9371 b1bd 5a00 a83d
00000350: 908a 633d a1f2 903d 18bb 24bd 209e 56bd
00000360: 4f6f f33d dd58 bebd f581 dbbd 75f3 2a3d
00000370: 0fc4 d03c 5b2a 41bc 2041 b9bd 7c4a c1bd
00000380: e131 f93c 9603 5d3d 855c f5bc ff2c 553d
00000390: ffe7 c7bd 207f a63d c0d0 c13d 7287 ee3c
000003a0: fb95 783d ba2a b0bd e2f9 17bd 3f91 81bc
000003b0: 5236 033b de69 24bb 1268 b8bd 2fa0 7b3d
000003c0: 9a2f 36bd 87e5 333d 9c54 3a3d 3154 8abd
000003d0: 8621 abbc 8f4d b1bd dae6 7f3c 715c 603d
000003e0: fd0d 9fbc 92fd 81bd fdc8 04be 6601 0ebe
000003f0: 262d 9a3d 67df 7a3d 210b 9dbd f7bf 603c
